chatbot_project/chat_app/chatbot_model.pth (torch, 119581 bytes, 6 tensors)

fc1.weight f4 [128, 156]
0.08922981 0.04633755 0.040543597 0.13949418 -0.009522113 -0.12582675 -0.03631425 -0.012450617
-0.042228766 -0.10102373 -0.0937976 0.0907944 -0.13991669 -0.049086772 -0.045425728 -0.052132245
0.06559668 -0.041214187 0.16222972 0.118412316 0.05553376 0.1595681 0.022334248 0.0076493993
0.09786441 0.04847595 -0.10197847 0.100064084 -0.16931896 0.04459741 -0.026120648 0.0091845635
-0.022484535 0.06919013 -0.095254526 0.013821687 0.075628005 -0.008097418 0.11092979 -0.041515823
-0.04053087 0.09974072 -0.0009344547 0.008343784 0.13940232 -0.042889614 0.10651697 -0.06520454
-0.070176154 -0.0018843311 -0.013092271 -0.012665324 -0.028201818 0.042932365 -0.021641482 -0.023831824
0.0015324235 -0.09792484 -0.06386029 0.008538311 0.023950309 0.10505296 0.17233092 0.032987244
0.037095945 0.05126487 -0.046955775 -0.020125767 0.07944204 -0.17181267 0.20195352 -0.048563242
-0.038114578 -0.16225272 -0.077235624 0.050174594 0.020088669 0.112819895 0.10995611 0.1386807
-0.15640198 -0.09453988 0.07859493 0.035313576 0.075417705 0.06306912 -0.03558032 0.10887247
0.0011002349 -0.042788163 0.13343397 -0.09204648 -0.066270545 0.17084575 -0.07964294 0.09204671
-0.121832706 0.03593213 0.0121317 -0.067402296 0.21262541 -0.108996265 -0.06385945 0.05613856
0.1499797 0.0748277 0.11772367 0.27690873 -0.1570143 0.10337065 0.1550615 0.19301063
0.17126915 -0.051566083 0.0057509155 -0.036636624 -0.06660776 0.07287465 0.11815536 -0.027239354
-0.090304226 0.003009278 0.118476175 -0.063672535 0.054173473 -0.019566335 -0.081589065 -0.010698281
0.09100856 0.032972485 -0.04169477 0.0022025835 -0.16336979 0.015310925 0.103625424 0.010476645
-0.030881362 -0.06496734 -0.04271581 0.04842396 -0.10662283 -0.055279307 0.16894995 0.07767538
0.07494644 -0.053680632 0.13839717 0.061465863 -0.08494471 0.018957721 0.1702696 0.009412033
0.17988554 0.02377003 0.22477338 0.113930784 -0.044814285 -0.07138325 -0.02440565 0.11083589
-0.028309368 0.04168015 -0.090386346 -0.100274 0.10778544 0.038394358 -0.08449217 0.05811292
-0.09984646 0.017493352 -0.057000436 0.026357053 0.03375753 -0.046760723 0.10581005 -0.054038078
0.09783562 -0.055615682 -0.0896624 0.13642044 -0.095021844 0.12584384 -0.017223984 -0.066076405
0.14641872 0.12378198 -0.03719331 0.03373938 -0.073923215 0.061110333 -0.059083395 -0.13486828
-0.17473902 0.08556745 0.05514812 -0.039061118 0.06282291 0.18485267 -0.06566255 -0.07035663
-0.01794444 0.12114728 -0.05146565 0.020443032 0.16004251 -0.015656415 -0.053467795 -0.096108995
-0.12548925 0.010511886 0.08463716 0.011713927 -0.04560382 0.0033653548 -0.096599 -0.05438933
-0.025280375 0.11437563 0.052812085 -0.030157227 -0.02876769 0.10386506 0.03632675 -0.17671989
0.011870583 0.059976395 -0.042369403 -0.02810709 -0.029103125 -0.06888275 -0.026302692 0.1887839
0.009743681 0.0735905 0.19335258 -0.11550532 0.16480424 -0.058433164 -0.11475813 0.0137688955
0.022780636 0.16561405 -0.004077979 0.024761239 -0.07850769 -0.03076681 -0.067231975 -0.016371883
-0.035085905 0.026439987 0.043644577 -0.1343208 0.038559277 0.049952745 -0.04415339 -0.01020636
00000000: 1ebe b63d 71cc 3d3d 0b11 263d 90d7 0e3e
00000010: a302 1cbc bad8 00be 40be 14bd acfd 4bbc
00000020: 12f8 2cbd 88e5 cebd f518 c0bd 6af2 b93d
00000030: 5246 0fbe 360f 49bd 5410 3abd 9f88 55bd
00000040: 8d57 863d 35d0 28bd 8c1f 263e 2882 f23d
00000050: 5e77 633d d265 233e 50f6 b63c d0a7 fa3b
00000060: 236d c83d b88e 463d 17da d0bd 66ee cc3d
00000070: f361 2dbe c6ab 363d f8fa d5bc da7a 163c
00000080: 7d31 b8bc 8eb3 8d3d ce14 c3bd 5b74 623c
00000090: dbe2 9a3d 08ab 04bc 282f e33d 7f0c 2abd
000000a0: b303 26bd dd44 cc3d 32f6 74ba 5eb4 083c
000000b0: 7bbf 0e3e 05ad 2fbd 9225 da3d f589 85bd
000000c0: 84b8 8fbd a9fb f6ba f780 56bc 3882 4fbc
000000d0: 8007 e7bc d9d9 2f3d 7a49 b1bc f53a c3bc
000000e0: 9adb c83a d28c c8bd 2fc9 82bd 46e4 0b3c
000000f0: 7033 c43c 0226 d73d 8477 303e a21d 073d
00000100: ebf1 173d 1dfb 513d b354 40bd cbde a4bc
00000110: 82b2 a23d a9ef 2fbe e7cc 4e3e 40ea 46bd
00000120: 081e 1cbd 9425 26be b62d 9ebd e083 4d3d
00000130: fe90 a43c 1e0e e73d ab30 e13d 5002 0e3e
00000140: d727 20be 209e c1bd 61f6 a03d f8a4 103d
00000150: 9974 9a3d 622a 813d abbc 11bd 88f8 de3d
00000160: c235 903a a442 2fbd eaa2 083e dd82 bcbd
00000170: dab8 87bd 30f2 2e3e d61b a3bd fc82 bc3d
00000180: 6d83 f9bd 922d 133d 0ac4 463c 370a 8abd
00000190: 7aba 593e 6f39 dfbd bec8 82bd 8cf1 653d
000001a0: 4794 193e 443f 993d 1c19 f13d fbc6 8d3e
000001b0: 5bc8 20be feb3 d33d 71c8 1e3e 94a4 453e
000001c0: 2e61 2f3e f536 53bd 2d72 bc3b 4910 16bd
000001d0: a669 88bd 4e3f 953d 70fb f13d 1125 dfbc
000001e0: 6cf1 b8bd 4f37 453b a3a3 f23d bf66 82bd
000001f0: 01e5 5d3d 9449 a0bc 2b18 a7bd d847 2fbc
00000200: b262 ba3d 280e 073d 23c8 2abd 3859 103b
00000210: 694a 27be adda 7a3c 9139 d43d 3ca6 2b3c
00000220: e9fa fcbc 990d 85bd c6f6 2ebd 3458 463d
00000230: 125d dabd 8e6c 62bd 3701 2d3e 4514 9f3d
00000240: 857d 993d 39e0 5bbd fdb7 0d3e a1c3 7b3d
00000250: 7ef7 adbd 394d 9b3c 275b 2e3e ed34 1a3c
00000260: ea33 383e 5eb9 c23c fe2a 663e 8b54 e93d
00000270: 2f8f 37bd 6231 92bd 5cee c7bc edfd e23d
00000280: 0ce9 e7bc ceb8 2a3d 7a1c b9bd 745c cdbd
00000290: 9dbe dc3d 6743 1d3d 3b0a adbd d007 6e3d
000002a0: 4d7c ccbd 384e 8f3c 4a79 69bd bfea d73c
000002b0: 5645 0a3d 2c88 3fbd f1b2 d83d 0857 5dbd
000002c0: 0b5e c83d 45cd 63bd eca0 b7bd cdb1 0b3e
000002d0: d09a c2bd 35dd 003e 5019 8dbc 1153 87bd
000002e0: caee 153e 6881 fd3d 0358 18bd 4e32 0a3d
000002f0: 0e65 97bd d44e 7a3d 6e01 72bd e91a 0abe
00000300: c9ee 32be fd3d af3d ffe2 613d 8dfe 1fbd
00000310: 4ca9 803d 054a 3d3e 167a 86bd 2317 90bd
00000320: 3800 93bc 111c f83d a5cd 52bd 2578 a73c
00000330: 2fe2 233e e241 80bc 0c01 5bbd cbd4 c4bd
00000340: 4180 00be 0c3a 2c3c 3f56 ad3d c5eb 3f3c
00000350: 12cb 3abd 498d 5c3b b2d5 c5bd 59c7 5ebd
00000360: ca18 cfbc c53d ea3d 7c51 583d 4a0c f7bc
00000370: 38aa ebbc 34b7 d43d 5ccb 143d 0ff6 34be
00000380: d57c 423c cfa9 753d 8a8b 2dbd d740 e6bc
00000390: ad69 eebc 6612 8dbd be78 d7bc 9150 413e
000003a0: f6a3 1f3c 9eb6 963d 38fe 453e 0e8e ecbd
000003b0: 71c2 283e 9d57 6fbd 4f06 ebbd ef96 613c
000003c0: 759e ba3c bb96 293e 91a0 85bb 15d8 ca3c
000003d0: a4c8 a0bd ad0a fcbc ebb0 89bd 541e 86bc
000003e0: 3db6 0fbd ac98 d83c a8c4 323d 648b 09be
000003f0: 55f0 1d3d 409b 4c3d 2fda 34bd 9438 27bc

fc1.bias f4 [128]
0.09445988 0.010853538 0.23546661 0.10345381 0.21576633 0.11173658 0.17229825 0.10339348
0.05953292 0.17641015 0.079280056 0.055892523 0.23268943 0.093554996 0.12612428 0.04057853
0.065926395 0.0286376 0.1719507 0.033282913 0.11341871 0.16198543 0.098513216 0.112098716
0.105684474 0.08002149 0.16231155 0.18681358 0.06854687 0.15730481 0.20703413 0.06163584
0.1900063 0.044699393 0.09147997 0.105531394 0.20707777 0.1233527 0.17920838 0.08103729
0.044026144 0.066003256 0.08653776 0.17594117 0.00796756 0.11029088 0.11794298 0.08562354
0.19238025 0.16062617 0.151823 0.055823013 0.22985968 0.15001142 0.14166066 0.15608814
0.13356276 0.22744545 0.14911516 0.14009996 0.19959071 0.12512241 0.08042093 0.034553375
0.033444386 0.086291306 0.0893844 0.050481413 0.13473405 0.1621271 0.054726515 0.03252496
0.13759172 0.1840067 0.15299734 0.025260491 0.16637158 0.12190758 0.10783482 0.20315818
0.02732093 0.06917151 0.04365688 0.1739801 0.07639893 0.07708451 0.21355931 0.16302912
0.17298278 0.13736479 0.04017812 0.09693535 0.077971324 0.21049765 0.08684097 0.0678181
0.050148692 0.0834496 0.20883231 0.15158372 0.1697915 0.15404452 0.14386964 0.10144295
0.084354326 0.02846707 0.14206886 -0.062857114 0.089512676 0.17196038 0.08419584 0.18454343
0.22300881 0.031420194 0.06538631 0.22844993 0.18553764 0.039212164 0.17942023 0.07892362
0.09923431 0.026099864 0.13368922 0.1008993 0.14514533 0.1939456 0.116489656 0.12279959
00000000: 2e74 c13d 0ad3 313c 291e 713e 97df d33d
00000010: d9f1 5c3e 26d6 e43d f46e 303e f6bf d33d
00000020: cbd8 733d dda4 343e 955d a23d 8fef 643d
00000030: 2346 6e3e c399 bf3d b926 013e ac35 263d
00000040: 6b04 873d 6699 ea3c d813 303e aa53 083d
00000050: 1248 e83d 82df 253e 4cc1 c93d 0394 e53d
00000060: 1a71 d83d 4fe2 a33d 0035 263e 0f4c 3f3e
00000070: 4d62 8c3d 8314 213e c100 543e dd75 7c3d
00000080: 0391 423e b616 373d da59 bb3d d820 d83d
00000090: 320c 543e 57a0 fc3d 6782 373e e1f6 a53d
000000a0: c254 343d b72c 873d b63a b13d ec29 343e
000000b0: 5e8a 023c 2fe0 e13d 178c f13d 655b af3d
000000c0: 54ff 443e 307b 243e 7d77 1b3e aca6 643d
000000d0: 5660 6b3e 989c 193e 7e0f 113e 92d5 1f3e
000000e0: adc4 083e 76e7 683e a5b1 183e 5d76 0f3e
000000f0: 8261 4c3e 1720 003e bbb3 a43d d787 0d3d
00000100: fbfc 083d 7fb9 b03d 2b0f b73d 99c5 4e3d
00000110: b9f7 093e a604 263e e928 603d e438 053d
00000120: d8e4 0c3e 416c 3c3e 56ab 1c3e 17ef ce3c
00000130: 505d 2a3e aeaa f93d 81d8 dc3d b308 503e
00000140: 25d0 df3c cba9 8d3d 8ed1 323d d727 323e
00000150: 0b77 9c3d 7cde 9d3d 4baf 5a3e 1bf1 263e
00000160: 6622 313e 5ba9 0c3e d091 243d 0a86 c63d
00000170: 6eaf 9f3d b28c 573e aed9 b13d 37e4 8a3d
00000180: b768 4d3d a0e7 aa3d 23d8 553e c338 1b3e
00000190: d3dd 2d3e d9bd 1d3e 9052 133e 52c1 cf3d
000001a0: f6c1 ac3d c633 e93c 807a 113e 3bbb 80bd
000001b0: 6c52 b73d 6216 303e de6e ac3d f4f8 3c3e
000001c0: 6c5c 643e 76b2 003d 42e9 853d c7ee 693e
000001d0: 94fd 3d3e ef9c 203d f0b9 373e b5a2 a13d
000001e0: 5c3b cb3d 62cf d53c d4e5 083e 4ba4 ce3d
000001f0: faa0 143e ad99 463e 2192 ee3d 5a7e fb3d

fc2.weight f4 [64, 128]
0.054293066 0.096071064 -0.013549965 0.17504984 0.17530319 0.03888359 0.1733436 0.04617914
0.32050988 0.102933325 -0.076642826 0.15633264 0.08532756 0.14009663 -0.08798214 0.07819632
-0.027610177 -0.098624855 0.27936885 0.165068 -0.011054288 -0.089096725 -0.06139365 0.09975049
-0.11290426 0.1379599 0.119713694 -0.123638056 0.3061024 0.19511627 0.065583974 -0.10531042
0.08353251 -0.032187305 -0.03266342 -0.0105892485 0.024301723 0.14654857 0.19908111 -0.0046607456
-0.13214242 -0.1294943 0.032479286 0.22627792 -0.078969136 -0.05803098 -0.16529484 -0.12870638
0.045842186 -0.09095111 0.03089382 -0.12613435 0.23038585 0.22149582 0.021021986 0.046659242
-0.06792397 0.02301076 0.0016558348 -0.07929642 -0.08305866 0.14332844 -0.009650724 0.04745071
0.16962452 0.27625144 0.14471734 0.049400404 0.11653594 -0.043261144 0.051548924 0.10036355
-0.024958389 -0.18815078 0.265798 0.04708768 -0.05085983 -0.087452665 0.057806842 0.027868534
-0.14814387 -0.0021531566 0.052193586 -0.14824328 0.07345586 0.10376934 -0.039242443 0.116132595
-0.009211483 -0.1175977 0.065685675 0.044926256 0.1062646 0.19947615 0.13718262 -0.06562052
0.10389325 0.1993949 -0.017888438 0.04082424 -0.018958189 -0.104408205 0.09262338 0.0034870193
0.057171546 0.2219145 0.038392425 0.050302587 0.010274608 -0.16373734 0.10772399 0.15438175
-0.00020154162 -0.054477107 -0.06944085 0.032958157 0.024758138 0.15572368 -0.020824613 -0.105357595
-0.089738086 -0.11683073 0.015392753 0.17391635 0.2445496 -0.11408935 -0.0062755686 0.18668918
-0.094396226 -0.17513193 0.15185444 -0.015158563 0.1298921 -0.059080493 0.012982488 0.02439039
-0.11774156 -0.0032072747 -0.015752692 -0.12105284 0.20443463 -0.104325235 0.06951273 -0.20733888
-0.112827 -0.16189021 -0.008471621 -0.13838337 0.081607565 0.121827565 -0.07017908 -0.09855878
0.2491053 -0.01732404 0.032902695 0.36192188 -0.10235799 0.07485102 0.16948864 0.112561256
0.31076398 -0.028959025 0.1287628 0.03501345 0.068271 -0.035964698 0.047830757 -0.057364054
-0.0010551581 0.12368924 -0.0043736636 0.07906503 -0.065137975 0.07384391 0.10905804 0.08609141
0.113003686 -0.052792046 0.026868962 0.012148488 -0.012858986 -0.018587809 0.011061513 0.1289345
0.082618035 0.22523007 0.17338426 0.12515175 0.098430686 0.014037338 -0.038819034 -0.11080044
-0.0305872 -0.06027385 0.023224967 0.0942484 -0.084397055 0.13490246 -0.057024226 -0.14810885
0.066777915 0.20798294 -0.011693172 -0.10297111 0.107166104 0.15147816 -0.01437384 0.16707405
-0.13834612 0.09523051 -0.0557896 0.21559036 -0.13115786 -0.2432975 0.26694238 0.0695812
0.22894135 -0.0036088007 -0.2798192 -0.013728744 -0.073951416 0.050592933 0.058055773 0.09124661
-0.09335748 -0.14508964 0.22127822 -0.08195198 0.036101535 0.26100168 0.14617547 -0.077479765
-0.16887103 -0.19324961 0.10980822 -0.014810691 -0.10711665 0.21796636 -0.16284202 -0.07314409
0.18816249 -0.077394776 0.050979603 0.285103 0.2293635 -0.09497777 0.088435054 0.14241204
0.08232335 -0.120080076 -0.044170607 0.029306104 -0.023782382 0.23026393 0.148277 -0.104999036
00000000: 6862 5e3d e8c0 c43d ac00 5ebc 4440 333e
00000010: ae82 333e 6644 1f3d fc80 313e 5726 3d3d
00000020: df19 a43e b5ce d23d eaf6 9cbd aa15 203e
00000030: 37c0 ae3d 7e75 0f3e fb2f b4bd 6425 a03d
00000040: bd2e e2bc d4fb c9bd 6f09 8f3e 9607 293e
00000050: 0b1d 35bc 5878 b6bd e877 7bbd fc49 cc3d
00000060: 593a e7bd 5c45 0d3e 742c f53d f335 fdbd
00000070: 74b9 9c3e 8fcc 473e e450 863d fdac d7bd
00000080: 1813 ab3d d6d6 03bd 14ca 05bd 877e 2dbc
00000090: 6814 c73c d410 163e ebdb 4b3e 2bb9 98bb
000000a0: 5850 07be 279a 04be 0009 053d 66b5 673e
000000b0: 92ba a1bd e5b1 6dbd 0d43 29be 9bcb 03be
000000c0: 04c5 3b3d 9344 babd 0915 fd3c 5d29 01be
000000d0: 45ea 6b3e cdcf 623e 4d36 ac3c c31d 3f3d
000000e0: b91b 8bbd 1081 bc3c 9908 d93a 2966 a2bd
000000f0: a91a aabd b1c4 123e 121e 1ebc ad5b 423d
00000100: 0db2 2d3e d470 8d3e c830 143e 1458 4a3d
00000110: 65aa ee3d 9932 31bd f724 533d 688b cd3d
00000120: 8975 ccbc 99aa 40be ad16 883e 03df 403d
00000130: 6652 50bd 621a b3bd dec6 6c3d 8d4c e43c
00000140: 07b3 17be f91b 0dbb f1c8 553d 16cd 17be
00000150: 0770 963d 0585 d43d afbc 20bd edd6 ed3d
00000160: c3eb 16bc 10d7 f0bd 3686 863d 9804 383d
00000170: 41a1 d93d 7a43 4c3e 9a79 0c3e 0d64 86bd
00000180: fcc5 d43d 2d2e 4c3e c68a 92bc 5137 273d
00000190: 344e 9bbc f8d3 d5bd 54b1 bd3d 7a86 643b
000001a0: b62c 6a3d 8e3d 633e 6041 1d3d 160a 4e3d
000001b0: d456 283c c3aa 27be 659e dc3d 4016 1e3e
000001c0: eb54 53b9 6323 5fbd 0137 8ebd 22ff 063d
000001d0: 94d1 ca3c 0776 1f3e 6198 aabc b9c5 d7bd
000001e0: 9ac8 b7bd f344 efbd e331 7c3c 2117 323e
000001f0: 366b 7a3e ada7 e9bd 49a3 cdbb 732b 3f3e
00000200: cf52 c1bd c955 33be bb7f 1b3e 9f5b 78bc
00000210: 6f02 053e 63fe 71bd 80b4 543c 5bce c73c
00000220: 7d22 f1bd 2431 52bb ca0b 81bc 8dea f7bd
00000230: 5057 513e 78a8 d5bd b15c 8e3d a550 54be
00000240: d811 e7bd 8cc6 25be 8ecc 0abc 5fb4 0dbe
00000250: de21 a73d bb80 f93d 0dba 8fbd 30d9 c9bd
00000260: 7615 7f3e 25eb 8dbc fac4 063d d34d b93e
00000270: 11a1 d1bd 7e4b 993d 6e8e 2d3e 8486 e63d
00000280: 751c 9f3e 7a3b edbc 65da 033e 436a 0f3d
00000290: abd1 8b3d b84f 13bd 2fea 433d 92f6 6abd
000002a0: 3b4d 8aba c950 fd3d f350 8fbb d9ec a13d
000002b0: 0f67 85bd 7a3b 973d d259 df3d b150 b03d
000002c0: 7a6e e73d 793c 58bd 4c1c dc3c 740a 473c
000002d0: 7fae 52bc 7645 98bc 593b 353c 6807 043e
000002e0: a533 a93d b6a2 663e a58b 313e c827 003e
000002f0: 0796 c93d ddfc 653c b500 1fbd 57eb e2bd
00000300: 0292 fabc b6e1 76bd 4942 be3c 4e05 c13d
00000310: 5dd8 acbd df23 0a3e 3c92 69bd d9a9 17be
00000320: dcc2 883d 7bf9 543e b894 3fbc 84e2 d2bd
00000330: e779 db3d 171d 1b3e 4180 6bbc 7615 2b3e
00000340: 9baa 0dbe 3708 c33d a383 64bd b8c3 5c3e
00000350: 3f4e 06be fb22 79be acac 883e 9780 8e3d
00000360: 9a6f 6a3e a181 6cbb 7644 8fbe 87ee 60bc
00000370: d773 97bd 893a 4f3d e4cb 6d3d 81df ba3d
00000380: 3532 bfbd 6192 14be c296 623e 71d6 a7bd
00000390: 34df 133d 03a2 853e 06af 153e b6ad 9ebd
000003a0: 87ec 2cbe 3ae3 45be 22e3 e03d 8aa8 72bc
000003b0: f95f dbbd 9332 5f3e 0fc0 26be 92cc 95bd
000003c0: abad 403e 2781 9ebd fdcf 503d 05f9 913e
000003d0: 44de 6a3e b483 c2bd 701d b53d 76d4 113e
000003e0: 2599 a83d 8bec f5bd 3dec 34bd 5b13 f03c
000003f0: 45d3 c2bc 4fca 6b3e edd5 173e bc09 d7bd

fc2.bias f4 [64]
0.032008715 0.14934562 -0.035084944 0.15926833 0.1092731 0.05253873 -0.038585357 -0.05496484
-0.02640004 0.0762323 0.013925932 0.062222607 0.11576677 0.09342312 0.091417365 0.008140478
0.17356634 -0.016468827 -0.04504844 0.03880557 0.07301926 -0.005383715 0.09333188 0.08077943
-0.0168137 0.017372202 0.035138853 0.08178674 0.17214172 0.02403276 0.04446526 0.08277833
0.012379864 -0.09112057 0.14378643 0.055534676 0.020628834 0.006591538 -0.073208764 -0.022209916
0.10830318 0.045441933 0.13429484 0.11427212 0.0052701477 0.07987169 -0.005247593 0.012951263
0.11433409 -0.10257811 -0.04835622 0.11438346 0.0450801 0.01639777 0.042084105 0.13575636
0.055966593 0.11765229 0.084952995 0.12314202 -0.062850766 -0.045419317 0.13264821 0.11877452
00000000: 921b 033d 0fee 183e 3bb5 0fbd 3d17 233e
00000010: 93ca df3d da32 573d ae0b 1ebd d022 61bd
00000020: e644 d8bc ae1f 9c3d 9829 643c 22dd 7e3d
00000030: 2117 ed3d 9f54 bf3d 0739 bb3d a45f 053c
00000040: 60bb 313e a2e9 86bc b784 38bd 97f2 1e3d
00000050: 1f8b 953d e069 b0bb c924 bf3d b06f a53d
00000060: e2bc 89bc 2650 8e3c c2ed 0f3d ce7f a73d
00000070: eb45 303e 5ae0 c43c 3421 363d af87 a93d
00000080: ead4 4a3c 6c9d babd c03c 133e 5478 633d
00000090: cdfd a83c d4fd d73b 7aee 95bd 92f1 b5bc
000000a0: 0fce dd3d 5221 3a3d 9684 093e 8007 ea3d
000000b0: 34b1 ac3b c593 a33d 00f4 abbb 8931 543c
000000c0: fe27 ea3d 7914 d2bd 2c11 46bd e041 ea3d
000000d0: e9a5 383d 9e54 863c 6260 2c3d b703 0b3e
000000e0: 3a3d 653d aff3 f03d d6fb ad3d e231 fc3d
000000f0: e7b7 80bd 9b09 3abd efd4 073e 0e40 f33d

fc3.weight f4 [12, 64]
0.108904496 0.16415307 -0.4781548 0.161212 0.12895264 0.065993905 -0.3554288 -0.2426965
-0.1641043 0.058571693 -0.29035705 0.042054173 -0.26903826 0.15520032 0.072210595 0.08942937
0.11763709 -0.12555319 -0.076095 -0.14524788 0.08640084 -0.35890085 0.17159851 -0.007547588
-0.29052168 -0.35399845 0.11787173 -0.3043608 0.3184331 -0.33244178 0.038107306 0.19390646
-0.16544367 -0.17243682 -0.2265553 0.09066561 -0.35182837 -0.011417896 -0.16489397 0.041340634
0.19093549 0.016293714 0.1277336 0.185103 -0.2749737 -0.12890473 -0.33604524 -0.39346337
0.17440072 0.027965402 -0.38444093 -0.017858298 -0.22066492 0.14308798 -0.36783215 0.26236024
-0.062286112 0.04331809 -0.03423951 -0.026942996 -0.2370855 -0.2644789 0.18407488 0.17955962
-0.050491534 0.21271582 -0.034074098 0.1666007 -0.36097842 0.11631591 -0.37264755 -0.3682531
-0.44168174 0.116755456 -0.36976728 0.14919026 -0.13541964 0.08906181 0.09402928 -0.2656586
0.25595364 0.16856156 0.0098563945 0.21933924 0.07937317 0.06520747 -0.13835652 -0.26432177
-0.25386238 0.21813446 -0.35383734 -0.082066946 -0.25286654 -0.26113015 -0.22981912 -0.2491717
0.13824943 -0.43216053 0.27595276 -0.2691744 -0.3914798 -0.16177942 -0.39767542 -0.12050355
0.10126384 0.16864596 -0.11337143 0.015756367 -0.21656948 0.18566054 -0.1313797 -0.21613662
-0.19895165 -0.038976394 -0.40741405 0.29570082 0.22323771 -0.20677269 0.18618831 0.23588356
-0.036650088 0.2004161 0.068042934 0.1809223 -0.26734614 -0.21224366 -0.117686525 0.042879805
-0.029538661 -0.18062381 -0.25538033 0.02292093 -0.19692841 0.19534796 -0.13548985 0.21126519
-0.26248032 -0.120681934 0.2954176 -0.13078311 -0.2584233 -0.11137507 0.1403651 0.07271606
-0.4124688 -0.20832877 0.06014662 0.09884008 0.07442254 0.18490306 -0.21390346 -0.41999605
-0.23370923 -0.24650365 -0.11205851 -0.494951 -0.41546968 0.13494496 0.18366022 0.03707494
-0.0026550256 0.030562688 -0.40893862 -0.31503087 0.09964734 -0.35772175 0.13608897 -0.31533277
-0.25716653 0.18889345 -0.27459612 0.21133015 -0.3489773 -0.3715981 0.24799559 -0.24103399
-0.34415728 -0.08012744 -0.25999144 -0.34457198 -0.21313637 0.22183926 -0.21551791 0.007306389
0.2164984 -0.1997396 0.22126505 0.13591297 0.022332478 -0.023777766 -0.14765152 0.10400552
0.15657799 0.030565541 -0.39764506 0.12968689 0.15022434 0.16460566 0.12268019 0.07175911
-0.25249684 0.14801462 -0.26123944 0.19116017 0.13880518 -0.14341125 0.14992525 0.191677
-0.26186988 -0.31887752 -0.44779047 0.07755763 -0.38438416 0.048747785 0.052820332 -0.11602332
-0.39806312 0.10455781 -0.1540315 0.17720799 -0.025121449 0.1447016 -0.3820312 -0.32815295
-0.47096664 -0.12002303 0.0893372 -0.022459501 -0.35368094 -0.24436004 -0.3014407 0.1983972
0.17937031 0.07806879 -0.24595568 -0.35464093 0.11076196 0.17545083 0.17069584 0.0032439833
0.01636775 -0.09232223 -0.047172304 -0.11553852 -0.081956476 0.07653178 -0.14895216 -0.25420284
-0.32911444 -0.17298824 -0.4903082 -0.31950936 0.16603488 0.08116793 -0.19793192 0.18239419
00000000: 5209 df3d be17 283e b5d0 f4be c214 253e
00000010: 290c 043e d027 873d c4fa b5be 6e85 78be
00000020: f50a 28be dfe8 6f3d aea9 94be ff40 2c3d
00000030: 62bf 89be d5ec 1e3e 26e3 933d bf26 b73d
00000040: b7eb f03d 0491 00be b2d7 9bbd dcbb 14be
00000050: ecf2 b03d dac1 b7be 85b7 2f3e c251 f7bb
00000060: 42bf 94be 493f b5be bc66 f13d 2ed5 9bbe
00000070: aa09 a33e cf35 aabe 6816 1c3d 6a8f 463e
00000080: 116a 29be 4793 30be 1dfe 67be e4ae b93d
00000090: d922 b4be 2012 3bbc f7d9 28be cc54 293d
000000a0: 9884 433e 657a 853c 99cc 023e a48b 3d3e
000000b0: 5ac9 8cbe 9aff 03be 1f0e acbe 0874 c9be
000000c0: 1a96 323e b317 e53c 71d5 c4be 914b 92bc
000000d0: fcf5 61be a885 123e 7f54 bcbe 1554 863e
000000e0: b91f 7fbd 4f6e 313d ba3e 0cbd 8fb7 dcbc
000000f0: 8bc6 72be c769 87be 207e 3c3e 7ade 373e
00000100: 36d0 4ebd 2dd2 593e 4891 0bbd 6099 2a3e
00000110: 2ad2 b8be 0937 ee3d a9cb bebe ac8b bcbe
00000120: 1c24 e2be 7c1d ef3d 2352 bdbe 55c5 183e
00000130: 72ab 0abe 0a66 b63d 6c92 c03d 6704 88be
00000140: 5b0c 833e 679b 2c3e b77c 213c 779a 603e
00000150: 678e a23d 7e8b 853d 55ad 0dbe 2f55 87be
00000160: 40fa 81be a45e 5f3e 2b2a b5be b712 a8bd
00000170: b977 81be dab2 85be b455 6bbe de26 7fbe
00000180: 4291 0d3e 2544 ddbe ae49 8d3e 3ad1 89be
00000190: 0a70 c8be 81a9 25be 1d9c cbbe 91ca f6bd
000001a0: 6b63 cf3d 87b1 2c3e 482f e8bd 7f13 813c
000001b0: 64c4 5dbe cc1d 3e3e 6688 06be eb52 5dbe
000001c0: fbb9 4bbe b6a5 1fbd 9398 d0be 1966 973e
000001d0: 6d98 643e 38bc 53be 26a8 3e3e 768b 713e
000001e0: 671e 16bd e139 4d3e 185a 8b3d b243 393e
000001f0: 98e1 88be 6756 59be a205 f1bd bca2 2f3d
00000200: 10fb f1bc 73f5 38be 36c1 82be adc4 bb3c
00000210: 9aa7 49be 4c09 483e dabd 0abe e755 583e
00000220: d263 86be 1728 f7bd fa40 973e 02ec 05be
00000230: 0f50 84be 9d18 e4bd debb 0f3e 28ec 943d
00000240: 1c2f d3be 2354 55be 4d5c 763d ab6c ca3d
00000250: d86a 983d 3a57 3d3e 8209 5bbe b909 d7be
00000260: 7951 6fbe 746b 7cbe ef7e e5bd 386a fdbe
00000270: 71b8 d4be 032f 0a3e 6d11 3c3e e4db 173d
00000280: f0ff 2dbb 9a5e fa3c 6760 d1be ba4b a1be
00000290: e813 cc3d 4e27 b7be e85a 0b3e 4c73 a1be
000002a0: 55ab 83be 496d 413e dd97 8cbe ee66 583e
000002b0: 27ad b2be 1b42 bebe 8ef2 7d3e 9dd1 76be
000002c0: 6235 b0be db19 a4bd 991d 85be bd6b b0be
000002d0: 6c40 5abe d529 633e bab0 5cbe 6f6a ef3b
000002e0: c2b1 5d3e 8a88 4cbe 4e93 623e c52c 0b3e
000002f0: 9af2 b63c 97c9 c2bc f631 17be d900 d53d
00000300: fb55 203e 9664 fa3c 2298 cbbe a4cc 043e
00000310: 69d4 193e 638e 283e c03f fb3d 71f6 923d
00000320: 4447 81be 2591 173e 2dc1 85be 7ebf 433e
00000330: f222 0e3e 66da 12be 0186 193e fa46 443e
00000340: cf13 86be ea43 a3be cb44 e5be 89d6 9e3d
00000350: 00ce c4be c2ab 473d 225a 583d a29d edbd
00000360: eece cbbe 6822 d63d 6fba 1dbe 0376 353e
00000370: 7fcb cdbc a82c 143e 9899 c3be aa03 a8be
00000380: 8a22 f1be a2ce f5bd 6cf6 b63d fdfc b7bc
00000390: ab15 b5be 8539 7abe 6f56 9abe a328 4b3e
000003a0: daac 373e 88e2 9f3d cedb 7bbe 7f93 b5be
000003b0: 2bd7 e23d 62a9 333e e4ca 2e3e 0299 543b
000003c0: a915 863c 7013 bdbd bf37 41bd 769f ecbd
000003d0: ccd8 a7bd b2bc 9c3d ea86 18be e026 82be
000003e0: b081 a8be d423 31be ad09 fbbe bb96 a3be
000003f0: 0c05 2a3e 5f3b a63d aaae 4abe 8bc5 3a3e

fc3.bias f4 [12]
0.01815722 0.06719687 0.09416849 -0.103443705 0.05936551 0.03369065 -0.021708023 -0.03251719
0.13071974 -0.11173831 0.033483595 0.019733584
00000000: 73be 943c 839e 893d 69db c03d 4bda d3bd
00000010: 4029 733d 35ff 093d 06d5 b1bc bf30 05bd
00000020: 65db 053e 0ed7 e4bd 1826 093d 53a8 a13c
