chatbot_model.pth (torch, 96029 bytes, 6 tensors)

fc1.weight f4 [128, 112]
000000 40 a1 ef bb 27 3f 38 3d bc 3b bd 3c 2b 9c 9f 3d
       -0.0073129237 0.0449821 0.023099773 0.077934586
000010 45 84 31 3d 64 0c e9 bd 60 ec 22 bc 4a 61 d3 bd
       0.043339033 -0.113793164 -0.0099440515 -0.10321291
000020 ec 6a 2d 3e b6 6a 38 3d e5 fc 1a bd 18 dc 79 3d
       0.16935319 0.045023642 -0.037838835 0.061000913
000030 bc 31 0d 3d b8 91 52 bd 5f c3 89 3d b5 56 b9 bc
       0.03447126 -0.0514085 0.06726717 -0.022624353
000040 bf ca 16 3e 51 fa 83 3d fa a4 64 3d de cb c3 bb
       0.14725779 0.064442284 0.055821396 -0.0059752306
000050 6f 79 55 bd cb e2 16 3e d9 7a 98 3b 0b 02 ac 3d
       -0.05211776 0.14734952 0.0046533165 0.08398827
000060 78 f2 18 bd 28 ab ac bd 11 fd bf bd e3 69 a5 3d
       -0.03734061 -0.08431083 -0.093744405 0.08076837
000070 f0 eb 12 3d 65 42 00 be 87 4e 0a be de 4b 75 bd
       0.03586954 -0.12525328 -0.13506518 -0.059886806
000080 3a f8 b9 3d a0 d7 27 3e d3 c4 fb 3d 0b 18 b6 3d
       0.090805486 0.16390848 0.122934006 0.088913046
000090 d5 6c 27 3b 57 c7 2a bd dc b0 02 bd 30 48 d5 bb
       0.0025547047 -0.04169401 -0.031906947 -0.0065088496
0000a0 ae ff 99 bd b6 26 2f bd da fc 18 3c 81 6c 94 3d
       -0.0751947 -0.042761527 0.009337628 0.07247258
0000b0 3e c2 87 bd 93 41 95 bd bd d9 f6 3d f6 ec 26 3e
       -0.06628846 -0.07287898 0.12053249 0.16301331
0000c0 61 a2 10 3e f4 f5 a9 bd f6 fd 38 bd 4c 1e 87 bd
       0.14124443 -0.08298865 -0.04516407 -0.065975755
0000d0 7a 28 c8 3c fd bc 0d 3c 80 45 2e bc 9c f6 18 3d
       0.024433363 0.008651015 -0.010636687 0.03734456
0000e0 f3 4d 9c bd 93 06 13 bd bf b5 35 3d 46 c3 7c 3d
       -0.07632055 -0.03589494 0.04436278 0.061709665
0000f0 87 21 0a be 4d d3 e0 3d fa 59 3c bb fe ee 70 bd
       -0.13489352 0.109778024 -0.0028740154 -0.05882167
000100 f0 4f 73 3b 27 51 81 3d 3a 90 06 be 66 bf 49 3d
       0.0037126504 0.06314307 -0.13140956 0.049254797
000110 b7 9c 11 3e 0d 48 a5 3d b8 af ba 3c 73 ce 81 3d
       0.14219938 0.08070383 0.022788867 0.06338205
000120 bc b5 c3 bb c5 d7 28 bd 53 c7 1c 3e 84 b6 dd 3c
       -0.005972592 -0.0412214 0.15310411 0.02706457
000130 ac 46 9b bc 20 d0 7c 3c fc 0e c0 bd dc 57 1f 3d
       -0.018954597 0.01543048 -0.09377858 0.03890215
000140 2d f9 c4 bc 6e 75 f0 3d 33 e7 d5 bd d7 4c 81 bd
       -0.024044598 0.11741148 -0.104444884 -0.06313484
000150 a1 f4 ba bd 79 8b 97 3c 7f bd fd 3d 99 14 03 3d
       -0.091286905 0.018499123 0.12389659 0.032002065
000160 1e 3b 45 bb c8 a6 c9 bc 3c 4b f9 bd f2 67 07 3e
       -0.003009505 -0.02461566 -0.12172553 0.13223246
000170 8f 71 55 bd aa a7 09 3e e9 07 db 3c a5 34 76 bd
       -0.05211025 0.13442865 0.02673717 -0.0601088
000180 3b f4 7e bb 8e dd ab 3c d5 37 83 3d fd 38 50 bd
       -0.0038902897 0.020979669 0.064071335 -0.0508356
000190 c7 51 03 3d f5 48 3a bd b5 31 79 3c 4a d4 b4 3c
       0.03206041 -0.045479733 0.015209605 0.022073884
0001a0 cb de 15 3e 70 5f 6a bd 67 75 8e bd 8a 81 bb bd
       0.1463577 -0.057219923 -0.069559865 -0.09155567
0001b0 f2 cc 8a 3d 97 ef 25 3d 88 57 aa 3d e6 f9 e6 bb
       0.067773715 0.040511694 0.083174765 -0.007048833
0001c0 0b 19 67 bd 33 1c d9 bc d5 66 dd bd e7 6f df bd
       -0.056420367 -0.026502704 -0.10810629 -0.109100156
0001d0 a3 85 ed bd d3 2d 7d 3d 0e 48 18 3d e9 0c de 3d
       -0.11597755 0.06181128 0.03717809 0.10842306
0001e0 54 aa 2b 3d 28 65 0b 3e 73 b9 38 3c a8 59 e6 3d
       0.041910484 0.13612807 0.011274683 0.11247569
0001f0 2c fc 0a bd 45 49 d6 3b 63 91 13 3d f4 39 26 3e
       -0.033931896 0.006539496 0.036027323 0.16233045
000200 fd 5e c0 bd 79 d2 57 bd cf c4 92 bd 9d 39 45 3d
       -0.093931176 -0.052690957 -0.071664445 0.048150647
000210 80 c5 e9 bd fb 90 09 bb 9a ff a5 3d c6 f3 16 bd
       -0.11414623 -0.0020990956 0.08105393 -0.036853574
000220 dd 6f 29 bc 90 22 8a bd 9b ed d8 3d 0f c5 83 bc
       -0.010341612 -0.067448735 0.10592195 -0.016085176
000230 6b 28 57 3d 07 23 e9 3c 53 89 05 bc e3 10 af 3d
       0.05252878 0.028459085 -0.008150416 0.08548143
000240 2e 35 b1 3d 8d 3f 82 3c c3 ba 9f 3d c0 eb e4 3d
       0.08652721 0.015899444 0.07799294 0.11177778
000250 3a e5 1c bc 61 49 ef 3d 9f 4a 4b bc 7f 23 ca 3d
       -0.009576136 0.11683918 -0.012407928 0.098700516
000260 81 8d 10 bc 39 01 18 3c fa 9c f9 bd bd 66 33 bd
       -0.0088228 0.009277635 -0.12188144 -0.04379915
000270 87 45 0e 3e 5c 94 85 3c da 1e f8 3d e2 0e 11 3e
       0.1389371 0.016306095 0.121152595 0.14165834
000280 45 8a 0e 3e c5 ea b5 3c df 54 70 3d f9 b3 71 3a
       0.13919933 0.022206673 0.05867469 0.00092202384
000290 ae f1 ad 3d 0b d2 1a bc 9a ee e5 bd 02 4f af 3c
       0.08493362 -0.009449492 -0.1122715 0.021399979
0002a0 4c f4 a3 bd 4b 1e d9 3d 2e 5f d8 3d 90 69 db bc
       -0.0800558 0.10601481 0.10565029 -0.026783735
0002b0 e4 e9 43 3c 5e 4c 10 3e 44 f5 28 3e 72 f9 85 3c
       0.011957619 0.14091632 0.16499811 0.016354296
0002c0 f1 b1 40 bd 08 b3 6e bc 8d d1 02 be ad 63 29 3d
       -0.0470447 -0.014569052 -0.1277525 0.041354824
0002d0 38 84 c2 3c 87 d3 bb bd e9 a2 ed 3d 2e f8 e3 3d
       0.023744687 -0.09171205 0.11603338 0.11131321
0002e0 29 a5 d3 bc 48 93 ac 3c 57 3e 05 3e 12 dd 1d bd
       -0.02583559 0.021066323 0.13012062 -0.038540907
0002f0 0f c0 0d 3e 9f bb db 3d 1e e8 11 3d ba 36 52 3d
       0.13842796 0.10729145 0.035621755 0.051321723
000300 e9 fe f5 3c 29 42 57 3d f6 28 18 3e 46 53 19 bd
       0.030028777 0.05255333 0.14859375 -0.03743293
000310 cd b8 62 3d 20 93 d9 bd 99 4c 16 3e f4 38 81 3d
       0.05535202 -0.10623765 0.14677657 0.06309691
000320 be 5d 3b bd af 8b a5 bd 96 0a c2 3d 46 09 4f 3d
       -0.045743696 -0.08083283 0.09474675 0.050545953
000330 df 01 e4 3d 4a 57 cf ba b1 3c b1 bb c0 18 20 be
       0.111331694 -0.0015818861 -0.0054088463 -0.15634441
000340 62 7e 9b bd 8f 34 2d 3d 49 6f 96 bd c5 28 20 3d
       -0.07592465 0.042286452 -0.07345445 0.03910138
000350 e7 42 fe 3c 6e b6 23 3e 39 78 75 bc 0c bb 3d bd
       0.03103776 0.1598756 -0.014982277 -0.04632096
000360 f0 83 00 be 3d 2c 14 3d 65 5b e0 bd 96 a0 11 3e
       -0.1255033 0.036175 -0.10954932 0.14221415
000370 28 d3 1a 3d 53 bc 7c 3d ee 95 7e 3d 63 5b 26 bd
       0.03779903 0.061703037 0.062154703 -0.040614497
000380 9f 4c 54 3d 66 31 8a bd aa ae af 3c 78 50 88 3c
       0.051830884 -0.06747703 0.021445591 0.016639933
000390 9a ac 21 bd 7f 96 bf 3d 68 cb 5a 3d c5 bd 31 3e
       -0.039471246 0.09354877 0.05341664 0.17357548
0003a0 da 2a ec bc 5b ce bb 3d 3b a0 42 3d 90 f7 81 3d
       -0.028829027 0.091702186 0.04751609 0.06346047
0003b0 b4 f6 a7 bc ae 17 85 3c e0 b5 86 3b 00 98 01 3e
       -0.02050338 0.016246643 0.0041110367 0.1265564
0003c0 57 9a 83 bd ac 7a 38 bd 1c 81 00 bd 7b 8c b0 bc
       -0.06425922 -0.045038864 -0.03137313 -0.021551361
0003d0 57 39 76 3a e6 ca b0 3d fe 2b 59 3c a4 75 7d bc
       0.00093926996 0.0863245 0.013255117 -0.015469942
0003e0 47 88 65 3d 26 57 b1 bd 0f 09 20 3e 8e 5f c4 bd
       0.056038167 -0.086592 0.15628456 -0.09588538
0003f0 50 91 e3 3d 9b 16 08 bd a1 4d 6d 3c c9 52 26 bd
       0.111117005 -0.033224683 0.01448384 -0.040606294

fc1.bias f4 [128]
000000 f7 74 2b 3d 52 1c 17 3e d9 5b c4 3b f9 eb 29 3e
       0.041859593 0.14756897 0.0059923944 0.16593923
000010 fb a7 0d 3d 05 64 c1 3c 1d fb 68 3e f5 95 6a 3e
       0.034584027 0.023607263 0.22752042 0.22908767
000020 b0 08 40 3e 52 94 89 3d e7 7b b3 3d c2 de e5 3d
       0.18753314 0.06717743 0.08763867 0.11224128
000030 a1 be cb 3c 52 64 13 3e 09 fd 5f 3e fc 98 71 3c
       0.024871172 0.14393738 0.21873869 0.014745947
000040 34 0c 60 3e 94 e9 ef 3d a4 dd 05 3e d3 66 b2 3d
       0.21879655 0.11714473 0.1307283 0.087110184
000050 f2 44 34 3c f3 55 80 3d 7c 5c e0 3d 09 85 7b 3e
       0.011002766 0.062663935 0.1095514 0.24562468
000060 e8 1b d2 3d 73 5f 62 3e b4 89 07 3e ff 7a 34 3c
       0.10259229 0.22106723 0.13236123 0.011015653
000070 a3 9a 13 3d fb 65 f0 3d 18 14 cf 3d 60 b9 39 3d
       0.036036145 0.11738201 0.101112545 0.045342803
000080 18 8c 18 3e c9 b4 ae bc ee 11 10 3e 61 a3 98 3d
       0.14897192 -0.02132644 0.1406934 0.07453037
000090 a7 a4 74 3e 6c ab c0 bc 06 8f 33 3e 4d 64 eb 3d
       0.23890935 -0.02351924 0.17535028 0.1149374
0000a0 d0 aa 04 3e 09 5f 13 3e 93 59 99 bc 07 ae c3 3d
       0.12955785 0.14391722 -0.01871947 0.095546775
0000b0 64 53 70 3d c7 71 33 3d d4 d5 cb 3a 55 02 9b bc
       0.058673277 0.04380968 0.0015551397 -0.01892201
0000c0 fa 98 83 3d d3 9e ca 3d 1e 05 9f 3b 9f 66 4f 3d
       0.06425662 0.098935746 0.004852905 0.050634976
0000d0 c2 6c 90 3e fb 8c b7 3d 12 cf 8f 3d e0 c9 d1 3d
       0.28207976 0.08962437 0.070219174 0.10243583
0000e0 36 55 94 3d cb 89 8d 3d 8f 60 2b 3d ec a1 5c 3d
       0.07242815 0.069110475 0.041840132 0.05386536
0000f0 04 5e 26 3e 37 09 44 3e c6 84 60 3c 9f 65 45 bb
       0.16246802 0.1914414 0.013703531 -0.0030120385
000100 d3 cf f0 3d b0 ba c2 3b c0 7d 8f 3d 5c c3 1c 3e
       0.11758389 0.005942665 0.07006407 0.15308899
000110 24 17 21 3e 12 cd 95 3c 84 81 89 3c 12 28 80 3b
       0.15731484 0.018286262 0.01678539 0.0039110268
000120 1e 0d 60 3d ac 1a af 3c b8 5a a0 3d 01 97 7e 3e
       0.05470001 0.021375023 0.07829803 0.24862291
000130 96 8b dc 3c b8 2c 3b 3e f1 8e 65 3d 5b 6b 04 3e
       0.026922029 0.18278778 0.056044523 0.12931578
000140 71 ec 51 3e 72 d7 12 3e 31 15 4a 3e 25 86 17 3e
       0.20500351 0.14339998 0.19734646 0.14797266
000150 6f ed 91 3c 67 67 4b 3e 6f d0 cd 3d d9 31 1b 3e
       0.017813412 0.19863664 0.10049521 0.15155734
000160 ad 37 55 3e e0 99 82 3e a7 76 9a 3d 0a 66 0e 3e
       0.2082202 0.25508022 0.075421624 0.13906112
000170 9f 0d df 3d 43 f0 11 3d 68 c6 9e 3d dc 18 9e 3d
       0.1089127 0.035629522 0.07752687 0.07719585
000180 dc a1 d5 3d 1f 41 54 3e 16 6e b6 3d 12 94 2d 3e
       0.10431263 0.20727967 0.08907716 0.16951016
000190 40 52 d8 3d c1 51 02 3d df 54 00 3e 35 2a 5f 3e
       0.10562563 0.031816248 0.12532376 0.21793444
0001a0 03 a8 3c 3d 00 c2 ff 3c eb 78 bc 3c cd be 73 3e
       0.046058666 0.031220436 0.023006877 0.23803253
0001b0 df 2e 80 3e 33 61 52 3d b4 e4 84 3d b2 60 74 3d
       0.2503576 0.051362228 0.06488934 0.05966253
0001c0 24 46 af 3d 45 4e c7 3c 42 de 8c 3d 64 0f aa 3d
       0.085583 0.024329314 0.0687833 0.08303717
0001d0 32 a7 e4 3d 43 1d ab 3d 1b ca 30 3e 34 10 89 bc
       0.111647025 0.083551906 0.17264597 -0.016731359
0001e0 84 b0 f7 bc 50 db 55 3d 01 3b 6d 3d 28 87 7f 3e
       -0.030235536 0.052211106 0.0579176 0.24953902
0001f0 4e a8 04 3d ff 00 e0 3d 3a 70 43 3d 6f fa 14 3e
       0.03238707 0.1093769 0.04771445 0.14548658

fc2.weight f4 [64, 128]
000000 e1 63 9f bd c6 99 18 3e c1 a6 aa 3d bb 95 ef 3d
       -0.07782722 0.1490241 0.08332587 0.11698481
000010 d8 77 d7 bc 0c 72 b9 3d 17 83 3c 3e 3e 33 21 3e
       -0.026302263 0.09054956 0.18409382 0.15742204
000020 44 99 98 3d 95 f6 2b 3d 45 e9 c2 3c 9f 20 13 3e
       0.07451108 0.041983206 0.023792872 0.14367913
000030 c5 c9 10 be c0 1c bc 3d 2f 57 6d 3d a9 ec e5 3c
       -0.14139469 0.09185171 0.057944473 0.02806695
000040 ea f6 d5 3b 14 1a cf 3a aa 9a d7 bd 4e 31 29 bd
       0.0065296786 0.0015800619 -0.10527547 -0.041306786
000050 64 eb b5 3d b3 eb 63 bc 84 ad 65 3d 20 1b c6 3d
       0.08882788 -0.013911176 0.05607368 0.096731424
000060 28 62 41 3c 99 5a 49 3e f5 ff 70 bd c5 5b 23 be
       0.011803187 0.19663467 -0.05883785 -0.15952976
000070 d6 e3 91 bc bd d1 a9 bc cd a9 9c bd e6 d3 34 3b
       -0.017808836 -0.020729894 -0.076495744 0.0027592122
000080 a2 ef a0 3d 4a bd e4 bd ea b7 15 3e f8 f1 b2 3c
       0.07858206 -0.111689165 0.14620939 0.021843895
000090 a8 5b 0d bd 27 06 c2 3d 6f 78 82 3d 29 54 8d 3c
       -0.03451124 0.0947383 0.06370627 0.017252045
0000a0 14 fa c5 3d 03 32 1c 3d 61 63 86 3d 98 7e 4f 3e
       0.09666839 0.038133632 0.06561924 0.20263135
0000b0 29 13 13 3e e3 a3 d4 bd 8d d9 a6 bd c2 96 6b 3e
       0.14362778 -0.103828214 -0.08146963 0.23006728
0000c0 a5 06 80 bb 9f 64 47 3e 27 d6 7e bd 71 42 8b ba
       -0.003907042 0.19471978 -0.06221595 -0.001062466
0000d0 65 05 a8 bc 70 11 00 bd 3e ac 0c 3e 4d c8 ea bb
       -0.020510385 -0.03126663 0.1373758 -0.007164991
0000e0 1f 7d ac 3d e8 b8 d8 bd 04 35 e3 3d dd 14 35 3e
       0.084223025 -0.10582143 0.11094096 0.1768374
0000f0 da 54 55 3e fd 7e 50 3d 60 48 1e bd 60 7f df 3c
       0.2083315 0.050902355 -0.03864324 0.027282417
000100 59 41 e1 3d 1f 3a 93 3d 8c 40 bc 3d a8 83 58 3e
       0.10998792 0.0718882 0.09191999 0.21143973
000110 62 b0 35 3e 6a d6 fc bc 72 09 00 be 0b aa be 3c
       0.17743066 -0.03086396 -0.12503603 0.023274442
000120 e9 fa f2 3d 74 4e b1 bd 8a 82 f9 bd ef af b4 3c
       0.118642636 -0.08657542 -0.121831015 0.022056548
000130 ac fe 34 3d a0 17 72 3d f9 1c 41 3d 97 07 51 3e
       0.044188187 0.05910456 0.04714677 0.20413052
000140 76 0b 84 3d 26 c6 e7 3d e2 2c 17 bd 84 c7 4c 3d
       0.064474985 0.11317091 -0.036908038 0.04999496
000150 bb a7 46 bd f6 04 b5 bd 61 e6 54 3e ff a1 7b bc
       -0.048499804 -0.08838837 0.20791008 -0.015358447
000160 f5 8e f7 3d b8 8b 1c 3e 1e 2b b4 3c e6 55 6a bc
       0.12087814 0.15287673 0.021993216 -0.014302706
000170 7f 66 05 be 04 36 54 3e 79 8a 47 be e9 e8 6e be
       -0.1302738 0.2072373 -0.19486417 -0.23331036
000180 9a 1b 6e 3d 4c 32 33 3e 1b 33 25 3c d1 e7 bc bd
       0.05813179 0.17499655 0.010082985 -0.09223903
000190 e1 2f 3e 3e ed dc 03 be 6f 22 30 3e 07 e5 a4 3d
       0.18572952 -0.12877245 0.17200635 0.08051496
0001a0 be 84 9d 3c bf 55 16 be f8 bb 8c bd cc 0b dd bc
       0.019228335 -0.14681147 -0.0687179 -0.026983164
0001b0 1a 99 35 3e 0e da a7 3c d5 5d ff 3d 20 09 3d 3d
       0.17734185 0.020489719 0.12469069 0.04615128
0001c0 ae 48 3a bd b1 23 e4 3d 77 52 2d be 8a 86 ee 3d
       -0.04547947 0.1113962 -0.16925989 0.11646755
0001d0 99 18 92 bd 87 4a 38 3e cb ec a2 3d b4 51 ba 3d
       -0.07133598 0.1799718 0.07955321 0.09097615
0001e0 a1 bb 74 bd 46 ab 6c bd 14 cd 85 bd 26 13 24 bd
       -0.05974925 -0.057780527 -0.06533256 -0.040057324
0001f0 43 e0 b1 bd bb 3b 47 bd c9 71 14 3d 60 ce 0a bd
       -0.08685353 -0.048640948 0.036241326 -0.03388822
000200 b1 d3 1f bd 64 7f 82 3d c9 b3 3f 3d b0 30 16 bd
       -0.039020244 0.06371954 0.046802316 -0.036667526
000210 3e 2c 26 bd bc 9d 9c bd 8f 9f 80 3d 5f 8b 7a 3e
       -0.040569536 -0.07647273 0.062804334 0.24467228
000220 17 73 ca 3d 97 c1 24 bd 4f b4 4a ba b1 29 a3 bd
       0.09885233 -0.040223684 -0.00077325566 -0.079669364
000230 c6 65 e1 bd f1 e8 8f 3a b2 a6 67 3d e6 c4 35 be
       -0.1100574 0.0010979456 0.056555457 -0.17750892
000240 2f 35 3b 3e 5c 12 27 3d 75 8c 58 3e 18 e8 37 3d
       0.18282007 0.040788993 0.2114733 0.044899076
000250 de 69 1a bd 3f ba 3d bc 64 d8 bc 3c 84 30 85 3e
       -0.03769862 -0.011580049 0.023052402 0.26013577
000260 16 06 0c 3e 7f d5 90 3d d2 de 00 3e db 85 ef bd
       0.13674197 0.07071971 0.12584999 -0.11695453
000270 e1 e9 cc bd c8 f0 2a bd 8c 15 28 3e b0 b7 9b 3d
       -0.10005546 -0.041733533 0.1641447 0.07603395
000280 fd 18 08 3d 67 96 f7 bc 72 5e eb 3d a0 0e e0 bd
       0.033226956 -0.030223085 0.114926234 -0.109402895
000290 26 11 97 3d 5f 35 b5 bd 4d 40 a8 3d 47 91 b6 38
       0.07376318 -0.0884807 0.082153894 8.705496e-05
0002a0 4e 6d 4a 3e 71 70 bb bd 1e bf 30 bd 61 27 dc 3c
       0.19768259 -0.09152306 -0.043151014 0.026874246
0002b0 f5 8f 47 bd 4a 6d aa bc 3a 91 4f be 62 ec c9 bc
       -0.048721272 -0.020804066 -0.20270243 -0.024648849
0002c0 b4 e6 4f be d2 c3 65 3d 30 8b d6 3c e7 fe 90 bc
       -0.2030285 0.056094952 0.026189417 -0.017699672
0002d0 18 d7 49 3e 90 4e 9e bd c8 7a 82 bd 5c 94 a4 bd
       0.19710958 -0.07729828 -0.06371075 -0.0803611
0002e0 c2 76 42 3d bc 95 cf bd 0a 3b 1f 3d 55 8d b7 3d
       0.047476538 -0.101359814 0.038874663 0.08962504
0002f0 8e 5d 56 3c a0 bb 1d 3e e9 d4 3a be 06 0b 3d 3c
       0.013083829 0.15403605 -0.18245281 0.011538273
000300 63 82 12 3e ba 0c 30 3e bb 52 71 3d e9 48 e3 3d
       0.14307551 0.17192355 0.05891679 0.11097891
000310 5d fc aa bd af e0 11 be 24 40 c8 bd 7e 66 b4 bd
       -0.08348916 -0.14245866 -0.09777859 -0.08808611
000320 d0 08 36 bc 2f 71 88 bd 83 82 0d be bc 54 c3 3d
       -0.0111104995 -0.06662213 -0.13819318 0.09537646
000330 2a 83 50 3d 13 69 90 3d a4 1a b6 3d 16 58 95 bc
       0.050906338 0.07051291 0.088918 -0.01823048
000340 1b fd 1a 3c 6e 66 0d 3c 3b c4 83 3d 06 03 75 3d
       0.009459759 0.008630378 0.06433912 0.059817336
000350 42 43 79 bc e8 60 e1 3d 8f 62 a5 bd 71 2c f9 3c
       -0.015213789 0.110048115 -0.08075439 0.0304167
000360 59 52 32 3e 43 f2 b9 3d 3a 5e 19 3e 34 64 6f bd
       0.17414226 0.09079411 0.14977351 -0.05844517
000370 9c 5f a8 3d 79 2c 05 3e 29 f6 df bd 1c a5 9c bd
       0.08221361 0.13005246 -0.10935623 -0.076486796
000380 4b 7a 2e 3d f8 0b 8c 3c 49 34 81 3d 93 bb 11 3e
       0.042597096 0.01709555 0.06308801 0.1423171
000390 8a 94 e8 3d 50 c8 b7 bd 7a 99 a8 3d c6 49 2f 3e
       0.113564566 -0.089737535 0.08232398 0.17117986
0003a0 c1 bd b6 3d 6b 7f b1 bd 5b 04 8c bd 9f 02 12 3e
       0.089229114 -0.08666881 -0.06836768 0.14258812
0003b0 96 ec ad 3c f8 95 53 bc 25 36 0a bd 01 c3 ed bd
       0.021230977 -0.012914173 -0.033743042 -0.1160946
0003c0 3f ab d8 bd cf 43 a9 bc d7 a4 70 3d da 2c 63 bc
       -0.105795376 -0.020662216 0.058750954 -0.013865674
0003d0 27 48 80 3c 73 b9 06 bd 09 67 da 3c 0b e6 09 be
       0.015659405 -0.032891702 0.02666046 -0.1346666
0003e0 b8 ae 88 bd e2 4a 25 bd d7 08 86 3d 54 78 b6 3d
       -0.0667395 -0.040354617 0.06544655 0.089096695
0003f0 f6 89 22 be 97 9d 43 bd 77 d5 4a bd 91 37 76 3e
       -0.1587294 -0.04775771 -0.049519982 0.24044634

fc2.bias f4 [64]
000000 72 c2 98 3d be ec 4d 3e 23 a3 94 3c 18 ab d5 3d
       0.074589625 0.20109841 0.018144196 0.10433024
000010 93 21 b5 3d d9 3b 4f 3d 34 14 d4 3d e7 bd de 3d
       0.088442944 0.050594185 0.10355416 0.10876065
000020 0e 6a c9 bb 18 17 06 3e 09 b7 87 bc b5 05 24 bd
       -0.006146676 0.13094747 -0.01656677 -0.040044505
000030 bd 3a 85 3d 69 e5 f7 bc 1d 0b 13 bd 8f 4e 6b 3c
       0.06505344 -0.030260758 -0.03589927 0.014361992
000040 e6 48 a7 3d 12 77 20 bd 1b d1 09 bc a3 1f 5b bd
       0.08168201 -0.039176054 -0.008411671 -0.053496968
000050 6b 79 4a 3d 81 82 34 3e 86 c9 85 bc e0 f3 40 3e
       0.0494322 0.17627908 -0.016331445 0.18843031
000060 1e 67 e2 3d a0 df 21 3e 93 86 e7 3d 5b 60 98 3d
       0.11054824 0.15807962 0.11304965 0.07440253
000070 68 c6 22 3e 47 29 8c bd 43 de 50 3e 58 80 ed bc
       0.15895998 -0.068438105 0.20397286 -0.028991863
000080 48 c4 ab 3d 88 77 f5 3d 0e a4 7a 3d fd dd ec 3d
       0.08387047 0.119856894 0.06119161 0.115657784
000090 95 ce e9 3a fc b1 18 3e 22 3d 77 bd 17 24 78 bd
       0.0017838056 0.14911646 -0.060361035 -0.060581293
0000a0 41 0e 83 bd b7 e1 40 bd e9 da 05 3e 66 0b 9a bb
       -0.06399203 -0.04709026 0.13071789 -0.004701066
0000b0 07 12 9e 3c c1 be d7 3d 4a 1b b1 3d 39 bc da 3d
       0.019295705 0.1053443 0.08647783 0.10680432
0000c0 92 af d0 3d b5 6a 88 3d 71 ed 03 3e 41 06 23 bc
       0.101897374 0.06660978 0.12883545 -0.0099502215
0000d0 e4 bd b9 3d 0c 6c 26 3e 37 d7 49 3d 0c e3 0d bd
       0.09069422 0.16252154 0.04927751 -0.034640357
0000e0 01 c3 1a 3d 6e 82 4a 3d e7 80 ed bc 3a ef 71 3c
       0.037783626 0.049440794 -0.02899213 0.014766509
0000f0 e0 ce 8b 3d 39 9c 23 3e b8 4c 4d 3d 50 e5 fd 3d
       0.06826568 0.15977563 0.050121993 0.123972535

fc3.weight f4 [8, 64]
000000 5f 2a 66 bc 59 00 7f 3e bf 41 af 3d 8e 06 ac bd
       -0.014048188 0.24902476 0.08557462 -0.08399688
000010 c2 5a 06 bd 5a 59 8c 3e 26 ba 22 bc 44 cc 2c 3e
       -0.032801397 0.2741192 -0.009932077 0.16874796
000020 ae 4f c3 be 64 1f 00 3d 51 b9 87 be 70 ba a9 be
       -0.38146728 0.031279936 -0.26508573 -0.33150053
000030 9e 83 5a bd c7 99 2e be 7a c4 9c bd 9e d1 20 3d
       -0.053348176 -0.17050849 -0.076546624 0.039262407
000040 bc 2a 56 be 15 4b a8 bd 74 8b bc be d9 df b9 be
       -0.2091474 -0.08217446 -0.36825144 -0.36303595
000050 5a 68 91 bc 78 32 d5 3d 81 6c a3 be 13 6b 90 3e
       -0.017749954 0.10410017 -0.3191872 0.2820669
000060 c3 7c 15 bc 28 d7 ac 3d e2 75 ef bd 21 40 21 be
       -0.009123984 0.08439475 -0.11692406 -0.1574712
000070 ce e5 94 3e 35 ae 9a be f3 20 b2 3c c8 ce 72 bc
       0.29081577 -0.30211034 0.021744227 -0.014819808
000080 51 3b ab 3d 9b a2 15 3e 01 53 37 be eb 22 7d 3e
       0.08360923 0.1461281 -0.17902757 0.24720351
000090 95 fa 20 3d 94 0b 0d 3e 4e fa 41 3d 14 c9 64 be
       0.039301474 0.13773948 0.04735785 -0.2234233
0000a0 16 1a 27 bb 5c af 86 be eb 0d e5 3c 23 32 82 bc
       -0.0025497726 -0.26305664 0.027960738 -0.015893048
0000b0 74 06 84 be 20 e3 ca 3d 7f 83 c5 3d 71 ab 52 3e
       -0.25786173 0.09906602 0.096442215 0.20573212
0000c0 4e e5 2f 3e 0b 86 10 3c 15 63 0c 3e 41 bb 53 bd
       0.17177317 0.008821021 0.13709672 -0.05169225
0000d0 82 71 b1 bd 26 79 e1 3d da 26 bf 3c 32 6a 43 be
       -0.08664228 0.11009435 0.023333956 -0.19083479
0000e0 9a fe 70 be 69 a5 96 be 0b 19 a0 be 44 94 8b bd
       -0.23534623 -0.29423073 -0.31269106 -0.06815389
0000f0 00 4f e1 3d 8a c3 05 3c 56 0f bf bd 1a 5a c4 3d
       0.11001396 0.008164296 -0.09329097 0.09587498
000100 c6 b4 1e 3e fb 30 54 3d d8 14 72 be 95 e9 a2 be
       0.15498647 0.051804524 -0.23640764 -0.31818834
000110 1d 8e 7c 3e b3 ca c7 bc 84 73 4c be 97 28 bc bd
       0.24663587 -0.024388647 -0.1996594 -0.091874294
000120 f1 04 11 3e f7 0a 93 bd 4b 1e 36 3d f5 a2 82 be
       0.14162041 -0.07179826 0.044462483 -0.2551495
000130 3c ec 70 3e ae c0 35 3c f9 e0 11 be 6a 28 e2 be
       0.23527616 0.011093302 -0.14245977 -0.44171458
000140 ab af 58 3e 92 29 6f be e7 92 1a 3e 6f c0 40 be
       0.21160762 -0.23355702 0.15095101 -0.18823408
000150 12 d4 a8 be 16 c9 c1 3d 8f c1 87 3d a0 59 95 3e
       -0.32974297 0.09462182 0.06628715 0.2916994
000160 28 4f a5 be b3 8f 87 3d 10 40 08 3e 57 96 7e 3e
       -0.32286954 0.06619205 0.13305688 0.24862038
000170 12 8d eb bc f6 2e 85 be 4d cb 7e 3e 21 0a 90 be
       -0.028753791 -0.2601239 0.2488224 -0.28132728
000180 6e ab fa 3d 13 a7 ab bb 05 2f aa 3d e8 22 98 3e
       0.12239729 -0.0052384227 0.083097495 0.2971413
000190 0a f2 32 be 0a 54 14 3e 37 3f 92 be f0 81 5b be
       -0.17475143 0.14485183 -0.28563854 -0.21436286
0001a0 d5 2c 91 3c 35 a2 64 be 57 5b 94 3d d1 e9 34 be
       0.017721573 -0.22327502 0.07243984 -0.17667319
0001b0 04 d7 3d bc b5 cf a4 3d ad 7c d5 3d e7 53 44 3e
       -0.011586908 0.080474295 0.10424171 0.19172631
0001c0 6b a6 99 be 47 70 33 be db 51 ab be b4 70 a8 be
       -0.3000978 -0.17523299 -0.33460888 -0.32898486
0001d0 c8 24 f4 3d 74 22 ca bd 8f ff 41 be de c7 9d be
       0.11921078 -0.09869853 -0.18945144 -0.3081655
0001e0 be 31 1d 3e 30 8a 83 3d 7a cc 46 be 6d a7 cc 3d
       0.15351006 0.064228415 -0.19413939 0.099928714
0001f0 92 0b 9a be 81 77 9a 3d 34 7a 96 be 99 68 7b be
       -0.30086952 0.07542325 -0.2939011 -0.2455162
000200 4d 24 d0 be 3b ef 70 be 7f f0 a3 be d0 0b 6b be
       -0.40652695 -0.23528759 -0.3201942 -0.22953725
000210 a2 6a c8 b9 cd d5 34 be fd 12 bf bd 13 df 7c be
       -0.0003822642 -0.17659684 -0.093297936 -0.24694471
000220 78 70 60 be 1c 9b b6 bd f9 cb 2e be f7 18 30 3e
       -0.21917903 -0.089163035 -0.17069997 0.17197023
000230 0e ab 05 3e b6 34 d3 3d 60 45 3d be df c8 12 3d
       0.13053533 0.10312788 -0.18483496 0.035836097
000240 40 47 12 3e 22 64 2a be 92 e1 65 bd 1e 7c 00 3e
       0.14284992 -0.1663976 -0.056123324 0.12547347
000250 84 e7 2f 3e df a9 ab be 0c 1e 82 be 14 1c 2d be
       0.1717816 -0.3352804 -0.2541355 -0.16905242
000260 5a 1b 98 be e3 b1 97 be 29 04 7b be 8f 77 38 be
       -0.29708368 -0.29627904 -0.24513306 -0.18014358
000270 3c 4a c5 3d 20 cd bd 3d 96 a3 07 be 59 43 1b be
       0.096333 0.0926764 -0.13245997 -0.1516241
000280 e4 c6 87 be 80 f4 d0 3d 99 c0 b2 be 71 a3 96 be
       -0.2651893 0.10202885 -0.34912565 -0.2942157
000290 b7 44 42 3e 86 8b 78 be ce 0f 8d bc f6 e0 c2 3d
       0.18971525 -0.24271974 -0.01721945 0.09515564
0002a0 18 c7 3c 3d 87 11 81 3a ae 75 c9 bc 42 ac 44 3e
       0.046088308 0.0009847143 -0.024592247 0.19206336
0002b0 52 4d 0d 3e db 0d 39 3e e5 ab 83 be 4d f4 9e be
       0.13799027 0.18071692 -0.25717083 -0.31045762
0002c0 62 ab 45 3e 9e 63 13 be c2 a6 eb 3d 8b bb bc 3d
       0.19303659 -0.1439347 0.11506416 0.092154585
0002d0 1a bb 40 be 50 77 68 3e 57 fa b2 be 9a f8 0f 3e
       -0.18821374 0.22701764 -0.3495662 0.14059678
0002e0 3e bf 10 bc 72 0a 07 be ed 6f 33 be 1f 83 be 3d
       -0.008834658 -0.13187578 -0.17523165 0.09302353
0002f0 0f 51 14 3e 5d 15 bb be 0d 4b fe 3d 6c d3 b3 3c
       0.14484046 -0.36539736 0.124166586 0.0219514
000300 50 23 6c be 73 e5 96 3a 07 73 f4 bd 57 78 9c be
       -0.23060346 0.0011512473 -0.11936002 -0.30560562
000310 87 23 5d 3e 9f 83 9a be ff f7 2c be b9 a4 76 be
       0.21595584 -0.30178544 -0.16891478 -0.24086274
000320 60 33 ce 3d 0a 1c 30 be 2b b7 1b 3e 9b 93 2d 3e
       0.10068393 -0.17198196 0.15206592 0.16950838
000330 ec 1a 17 be 52 5e 84 be c0 6c 01 be a7 e6 1e be
       -0.14756364 -0.2585321 -0.12639141 -0.15517674
000340 78 ea 8e be 81 66 64 3e 70 14 6b bc 43 e1 cd 3d
       -0.2791326 0.22304727 -0.014348134 0.10052731
000350 24 5d 79 be 44 4f 1e 3e f3 a7 3a 3e 50 40 6a be
       -0.24351937 0.15459925 0.1822813 -0.22876096
000360 9b 16 a2 ba 37 18 21 3e 26 81 2b 3e da 25 57 be
       -0.0012366356 0.15731893 0.16748485 -0.21010533
000370 81 84 43 3e dc a2 d0 bd df 97 a3 bd 55 ae 23 3e
       0.19093515 -0.10187313 -0.079879515 0.15984471
000380 04 f9 c6 3d ae 1e a2 be e5 f2 f4 3d ef 1a b3 bc
       0.09715465 -0.31664032 0.11960391 -0.021863429
000390 a1 a3 d7 bd f6 25 8f be 6c a0 3b be fb 83 09 3e
       -0.105292566 -0.2795865 -0.18322915 0.13429253
0003a0 85 9d d0 bd d7 8e 0c be 45 f2 96 bd c9 ce 2d 3e
       -0.101862945 -0.13726364 -0.07370428 0.16973414
0003b0 2b 96 87 3d e3 c0 7b be 99 72 0f 3e 36 2c e3 bd
       0.06620439 -0.24585299 0.1400856 -0.11092417
0003c0 31 55 ba be a7 bf 9c be 54 75 8a be d6 c2 23 3e
       -0.3639312 -0.3061497 -0.2704264 0.15992293
0003d0 4e 14 6c 3d 90 eb 86 be b9 f8 1d 3e f0 b1 1b 3e
       0.05763655 -0.26351595 0.15426911 0.15204597
0003e0 6f c4 0f 3e 6d 63 f9 bc 20 d3 fb bd 25 1b 69 be
       0.14039777 -0.030442918 -0.12296128 -0.22764261
0003f0 eb 60 c2 be ce e2 4f be 4b 2f 83 be 92 d1 69 3e
       -0.37964568 -0.20301363 -0.2562202 0.22833851

fc3.bias f4 [8]
000000 7f 8a 4b 3e 89 84 5b 3d 8e cd 73 3d 74 52 04 be
       0.19877051 0.053593192 0.059522204 -0.12922078
000010 dd 9f d5 bc d1 31 f5 bd a6 88 a4 3a 4b e0 38 bd
       -0.026077205 -0.11972392 0.0012552931 -0.045135777
